…
,"metadata":{"colab":{"base_uri":"https://localhost:8080/"},"id":"MHtdDy51kIXc","executionInfo":{"status":"ok","timestamp":1715723542738,"user_tz":300,"elapsed":931,"user":{"displayName":"","userId":""}},"outputId":"e58c038e-e80d-4b8a-a568-2f5bfd548b01"},"execution_count":7,"outputs":[{"output_type":"stream","name":"stdout","text":["Model: \"sequential\"\n","_________________________________________________________________\n"," Layer (type)                Output Shape              Param #   \n","=================================================================\n"," conv2d (Conv2D)             (None, 222, 222, 32)      896       \n","                                                                 \n"," conv2d_1 (Conv2D)           (None, 220, 220, 32)      9248      \n","                                                                 \n"," conv2d_2 (Conv2D)           (None, 218, 218, 32)      9248      \n","                                                                 \n"," max_pooling2d (MaxPooling2  (None, 109, 109, 32)      0         \n"," D)                                                              \n","                                                                 \n"," dropout (Dropout)           (None, 109, 109, 32)      0         \n","                                                                 \n"," conv2d_3 (Conv2D)           (None, 107, 107, 64)      18496     \n","                                                                 \n"," conv2d_4 (Conv2D)           (None, 105, 105, 64)      36928     \n","                                                                 \n"," conv2d_5 (Conv2D)           (None, 103, 103, 64)      36928     \n","                                                                 \n"," max_pooling2d_1 (MaxPoolin  (None, 51, 51, 64)        0         \n"," g2D)                                                            \n","                                                                 \n"," dropout_1 (Dropout)         (None, 51, 51, 64)        0         \n","                                                                 \n"," conv2d_6 (Conv2D)           (None, 49, 49, 128)       73856     \n","                                                                 \n"," conv2d_7 (Conv2D)           (None, 47, 47, 128)       147584    \n","                                                                 \n"," conv2d_8 (Conv2D)           (None, 45, 45, 128)       147584    \n","                                                                 \n"," max_pooling2d_2 (MaxPoolin  (None, 22, 22, 128)       0         \n"," g2D)                                                            \n","                                                                 \n"," dropout_2 (Dropout)         (None, 22, 22, 128)       0         \n","                                                                 \n"," flatten (Flatten)           (None, 61952)             0         \n","                                                                 \n"," dense (Dense)               (None, 256)               15859968  \n","                                                                 \n"," dropout_3 (Dropout)         (None, 256)               0         \n","                                                                 \n"," dense_1 (Dense)             (None, 11)                2827      \n","                                                                 \n","=================================================================\n","Total params: 16343563 (62.35 MB)\n","Trainable params: 16343563 (62.35 MB)\n","Non-trainable params: 0 (0.00 Byte)\n","_________________________________________________________________\n"]}]},{"cell_type":"code","source":["from tensorflow.keras.pre
…
